data.pth (torch, 5418 bytes, 6 tensors)

l1.weight f4 [8, 54]
00000000: 8a2d e63e 47ac 233f c3f8 913e ae84 e53e
00000010: c160 153f 8501 33bf b172 cf3e dd1b a83e
00000020: 223b 273f 2e36 fb3e 4857 aa3e cb4f 48be
00000030: c4ee 8e3d 4507 80be 0ae6 ff3e ef99 ecbd
00000040: e4a6 e23e d26e 35bf 9063 9cbe a267 cc3e
00000050: a206 a83e de3f fd3e b192 cd3e 370b 3dbd
00000060: 0593 0a3e 037a ea3e d629 a3be c29c 223f
00000070: 0a62 93be 93be 1d3f c539 f2be ff20 d5be
00000080: a79f 933e 3c43 bb3e 1a4e 1f3f b5fe 35be
00000090: 1cae 6dbe 3a72 323f 6a63 dd3e f21d 653e
000000a0: a0c3 0abf f686 edbe ec3a 20be 817b f93e
000000b0: 4a69 153e 1177 233f 1b5b b23e d43a 2c3e
000000c0: 5495 2d3d 879b cdbe ce5a 9fbe 015c c1be
000000d0: 9c34 6c3e 2697 d33e 98e4 02be bca1 ed3c
000000e0: dfa3 b53e 3a0b 2dbe b5ca 39bf d89a ee3e
000000f0: bccf b73e 4b28 a43e 80b3 96ba 9446 f63e
00000100: 2dda 97be ce02 d13e 352c 0f3f dd1f 1f3f
00000110: 4855 403e 0b35 a83e d6d1 35be 59e1 023f
00000120: 8802 16be 317d f2be e111 cfbd 3a4d f2be
00000130: fa6c f2be cd4f fa3d 25ac 2e3f 09a5 62be
00000140: 4cbf 62bc bc29 953e caff ba3d 75b1 203d
00000150: 2481 483e 2282 043f df15 5b3d 773f e33e
00000160: aee3 023f d561 053f 6aad 96bd 8e48 57bd
00000170: 7583 ab3e 2e53 ff3e 2736 ba3e 1e28 13be
00000180: 3d8e 013f 176a c33e 8261 293f f880 c83e
00000190: 8f5d efbe 20e0 51be 4d05 b1bd a419 223c
000001a0: 91ca 043f a79b 28bd 104a fc3e ab14 053e
000001b0: 1670 92be 2179 a8be acf5 f13e fed6 b63e
000001c0: 0696 d83e dd28 893f 97a8 7c3e 742c d63e
000001d0: d12b 353f 7dbe 6a3e 47cc 853e bc4b 7dbe
000001e0: 419e e4bd dd4f d6be d99e 14be e472 51be
000001f0: b08c ec3e b1af 963f 8625 91be 1941 203f
00000200: 07bf 60be 4465 073f 8d53 e33e 1947 cb3e
00000210: 2733 5a3e 02fa ba3e f482 96be adf2 33be
00000220: d32b d6be 8e33 98be d45f 743f 0320 65be
00000230: 347c f43d d748 013f 2869 6abe 4597 b5bd
00000240: c126 50be 4359 103f 0c3e 6d3e 164d 7e3e
00000250: daf2 703f 9e07 b7be 6e86 67be 52a1 6ebe
00000260: 9e2d 7e3d b4ef 70be 605a 3cbf 8579 94be
00000270: 2a00 323e 9e70 c3be 7770 81be ed53 08be
00000280: fc3a 173e b971 2f3e 7899 e23e 57d0 303f
00000290: d4a6 dabe 35a1 dd3e 04fa 5dbd 96d5 12bf
000002a0: b941 87bd 4881 b1bd 0fea f5be ba67 89be
000002b0: 43a6 b23e 8ea9 25be db78 b9bd ad8e 3abe
000002c0: 7cc5 2f3f 2195 d7bd af45 a43e 004c 07bf
000002d0: 5b1c 6cbe 9103 2c3f 3883 be3e 1fb3 303f
000002e0: 7640 273f ccbb fe3d 0c54 aabd 23ee 923e
000002f0: d8ee c0be 3011 4a3f 29e4 3e3c bbd4 493f
00000300: 1b0d 02bf 78d5 f3bd d058 243e 167f 49be
00000310: c945 543f 86e7 37bd aff2 b5bd c39f b6be
00000320: 3a19 1a3d 3477 41ba a02d 9abe 4b87 c2be
00000330: 96ac 25be 816c 0d3f cc3c 96be 1725 4e3f
00000340: b4ce 533f 919b f23e 0b93 8f3e 801e d7be
00000350: 7fae 15be 2266 45be 2307 6fbd 8dac 843e
00000360: 2226 de3e 1472 253e 7519 073f 95e7 ecbd
00000370: e3ac 863d dfcc e0be 41e1 523e 18ed 493e
00000380: 83f6 443f 696f cb3d 38cc 66be 45d9 913e
00000390: 81e4 b53d 33c0 003f 4b93 2dbe 92fe 8f3e
000003a0: 9a4a 59be 59ad e0be be77 9cbe d21a e0be
000003b0: 8c35 cb3e b6fe dfbe 5a09 e0be c32c 28bc
000003c0: 6270 bd3e 978f 52be 408c 87be 1767 66be
000003d0: acc2 8dbd ba6c 0dbe 64cf c9be 6e22 ed3e
000003e0: 1aca 6a3e 82df 043f 954c a5bd ba6b 863e
000003f0: f053 c43c c38a 673f ef36 913e fec2 993e
0.4495662 0.6393475 0.28510103 0.4482779 0.5835076 -0.69924194 0.4051719 0.32833758
0.65324605 0.49064773 0.33269715 -0.19561689 0.06979135 -0.25005546 0.49980193 -0.11552798
0.44267952 -0.70872223 -0.3054471 0.39922816 0.3281756 0.4946279 0.4015098 -0.046153273
0.13532646 0.45796213 -0.31867856 0.63520443 -0.28785735 0.6161892 -0.473097 -0.41626737
0.28832743 0.36574733 0.6222855 -0.17772944 -0.23210949 0.69705546 0.4323991 0.22374704
-0.5420475 -0.4639203 -0.15647477 0.48727039 0.14590946 0.63853556 0.34835133 0.16819316
0.04237874 -0.4015772 -0.31123966 -0.37765506 0.23066944 0.41326255 -0.12782514 0.029007785
0.35476586 -0.16898814 -0.7257493 0.4660251 0.35900676 0.3206199 -0.0011497587 0.48100722
-0.29658642 0.40822452 0.5592683 0.62157995 0.18782532 0.3285297 -0.17755827 0.51125103
-0.14649403 -0.47361138 -0.10110832 -0.47324544 -0.47348768 0.12222252 0.6823142 -0.22133268
-0.013839554 0.29133403 0.09130819 0.039231736 0.19580513 0.51761067 0.053487655 0.44384357
0.5112866 0.52102405 -0.07357295 -0.052559428 0.3349873 0.4986815 0.3636944 -0.14370772
0.50607663 0.38166878 0.6616441 0.39160895 -0.46751067 -0.20495653 -0.08643589 0.0098938085
0.5187159 -0.041164067 0.49275255 0.12996165 -0.2860114 -0.32904914 0.47257745 0.357109
0.4230196 1.0715595 0.24673687 0.4183079 0.70769984 0.22924228 0.26132414 -0.24735922
-0.11162997 -0.41857806 -0.1451372 -0.20453984 0.46201086 1.1772367 -0.2834894 0.6259933
-0.21947871 0.52888894 0.44399682 0.3970268 0.21308576 0.36518866 -0.29396784 -0.17573042
-0.4183031 -0.29726833 0.9545872 -0.22375493 0.11937752 0.5050177 -0.22891676 -0.08866743
-0.20327283 0.563862 0.231682 0.24834093 0.9412056 -0.35748 -0.22609875 -0.23303726
0.062055223 -0.2352894 -0.735754 -0.28998962 0.17382875 -0.38171858 -0.25281116 -0.13313265
0.14768595 0.17133226 0.44257712 0.690679 -0.42705405 0.43287054 -0.05419351 -0.57357156
-0.066043325 -0.086672366 -0.48030135 -0.2683695 0.34892473 -0.16177961 -0.090562545 -0.18218489
0.6866071 -0.10526491 0.32084414 -0.5285034 -0.23057692 0.6719294 0.37209487 0.6902332
0.65332735 0.12438163 -0.08316812 0.2869731 -0.37682223 0.78932476 0.011651077 0.78840226
-0.5080125 -0.1190595 0.16049504 -0.19677386 0.82918984 -0.044898532 -0.08884179 -0.35668764
0.037621714 -0.00073801284 -0.30112934 -0.37993845 -0.16179118 0.5524369 -0.2934326 0.80525345
0.8273728 0.47384313 0.28041872 -0.42015457 -0.14617346 -0.19277242 -0.058356415 0.25912896
0.43388468 0.16156799 0.5277322 -0.11567608 0.06575944 -0.43906304 0.2059374 0.1971935
0.7693865 0.09933359 -0.22538841 0.28486076 0.08881474 0.5029327 -0.16950719 0.2812391
-0.21219864 -0.43882254 -0.30560106 -0.43770462 0.3968929 -0.43749017 -0.43757135 -0.010264578
0.36999804 -0.20562588 -0.2647419 -0.22500263 -0.06921896 -0.13811007 -0.3941604 0.4631533
0.22928658 0.51903546 -0.080712475 0.26254064 0.023965806 0.9044611 0.28362224 0.3003158

l1.bias f4 [8]
00000000: 0e13 393f 6a78 f23e 594d 553f 7acb 213f
00000010: 4f14 e03e a081 353f fede 4b3f 2995 203f
0.722947 0.47357494 0.8332115 0.63201106 0.43765494 0.7090092 0.79637134 0.627276

l2.weight f4 [8, 8]
00000000: d635 3d3f a4ba a03f ca8e 6e3f a823 1a3f
00000010: 541a 91bf 57f3 51bf e357 a73f 212e 2abf
00000020: beb4 cb3f 664f 86bf 26ba 5fbd af6e b93f
00000030: 22a5 c63e 45b7 a63f 94e4 873e 82cc 8f3f
00000040: 81c8 bfbe 6842 ca3e fd63 8cbe 2f01 72bf
00000050: 4cbc d03e fdbf cb3e a6a9 dc3d b334 513f
00000060: 4ce2 b0bd 082f c7bc cdcd d73f adcc 03bf
00000070: e76a c3bf fa40 553f 9ce8 333f 4d29 4b3f
00000080: 26d2 913f 6b61 673f 7e41 a63f 30f8 89bf
00000090: 5ed5 2f3f 921a 0ebf 0846 8a3f 01ca a6be
000000a0: 08d0 113e c28e 453f 6d54 08bf 9bfb 77be
000000b0: 6821 953f 2dbc 9a3e a122 6bbf 48aa 4a3f
000000c0: cb99 a9be 264a 97be 5029 ae3d a87b 30bd
000000d0: 60e4 d0bc d89f 063d 107d abbc 3623 74be
000000e0: 4146 48bf e3c7 0a3f 7064 dcbe ed63 12bf
000000f0: ef64 d6bd ae1d 303f 191e 8fbd 6042 5a3f
0.7391027 1.2556958 0.9318663 0.6021066 -1.133616 -0.8201193 1.3073696 -0.6647664
1.5914533 -1.049298 -0.054620884 1.4486903 0.3879786 1.302468 0.2654158 1.1234286
-0.3745766 0.3950379 -0.27420035 -0.94533056 0.4076866 0.39794913 0.10774545 0.8172104
-0.08636913 -0.024314418 1.685968 -0.51484185 -1.5266999 0.8330227 0.7027681 0.79359895
1.1392257 0.90383023 1.2988737 -1.0778866 0.6868495 -0.55509293 1.0802622 -0.32575992
0.14239514 0.77170956 -0.53253824 -0.24217074 1.165082 0.30221692 -0.91849715 0.7916608
-0.33125147 -0.29548758 0.085039735 -0.043086678 -0.025499523 0.032867283 -0.020933658 -0.23841557
-0.782322 0.5421125 -0.43045378 -0.57183725 -0.1046847 0.6879529 -0.069881625 0.8525753

l2.bias f4 [8]
00000000: 99c1 383f f567 5f3e 97c1 d6bd 2caf 233f
00000010: 4a1c cd3e 45f4 0c3f 25b3 84be 4807 273d
0.72170407 0.21817 -0.10486143 0.63939166 0.40060645 0.55060226 -0.25917926 0.04077843

l3.weight f4 [7, 8]
00000000: 3fd4 34bf cabe 6fbf 56c4 f83e e48c 8dbf
00000010: 1a17 6c3e 44a5 3c3f f1ed 9b3e 37b7 023f
00000020: 63f7 103f f599 8f3e 0695 78bf 1974 e5bf
00000030: 95ee e9bc fc43 5cbf f55b 973e 020e 3fbf
00000040: 6bd9 023f fb83 cabf 33b4 aebf 2dba b13e
00000050: 98fe f73e 3f32 8abf 95c4 893e b5f4 13bf
00000060: d371 c7be 460e 1a3f 413d bbbe a8f9 f43e
00000070: 9676 85be 6258 87bf 40a6 febd f95a 7abf
00000080: b390 83bf 7e9c 38bc 15a5 583e a1c3 8e3e
00000090: 036e 56bf 5f2d 893e a88c b33d 6bfd 073f
000000a0: 95a3 833d a8f9 b8be 6a0a 11bf e1f2 d5be
000000b0: d10b 3a3f b489 943e 8eba 7d3e cbb3 b3bf
000000c0: 6358 5dbf 59cf 603f 058f 77bf 06d4 78bf
000000d0: b99a 75bf fcb0 003f 137a 24be 9eb4 6cbf
-0.7063636 -0.93650496 0.48587292 -1.1058621 0.23055688 0.73689675 0.30454972 0.51060814
0.5662748 0.28047147 -0.9710239 -1.7926055 -0.028556148 -0.86041236 0.29562345 -0.7463075
0.51113003 -1.5821527 -1.3648742 0.34712353 0.48436427 -1.0796584 0.26907793 -0.5779527
-0.38954028 0.6017803 -0.3657017 0.47846723 -0.26067036 -1.0573847 -0.124340534 -0.97795063
-1.0278534 -0.011267779 0.21156724 0.27883628 -0.83761615 0.26792428 0.087670624 0.5312106
0.06427685 -0.36127973 -0.56656516 -0.41786864 0.7267428 0.2901131 0.24778196 -1.4039243
-0.8646299 0.8781639 -0.96702605 -0.9719852 -0.95939213 0.50270057 -0.16062193 -0.924631

l3.bias f4 [7]
00000000: 92d1 39be 2491 d0bc 865e f53d 40d5 a9be
00000010: ad74 6ebe b47b 15be 8867 103d
-0.18146351 -0.025459833 0.119809195 -0.3317051 -0.23286696 -0.1459797 0.035254985
